models/best_model.pth (torch, 495925 bytes, 30 tensors)

conv1.weight f4 [32, 1, 10]
0	0xbcddb683	-0.027064567
1	0xbdde23fd	-0.10846708
2	0xbe6597d7	-0.22421204
3	0xbe83e16c	-0.2575792
4	0xbe54e27c	-0.20789522
5	0xbe7f466b	-0.24929206
6	0xbdf3cd69	-0.11904413
7	0xbe84eeaa	-0.25963336
8	0xbc5b92b7	-0.013401679
9	0x3ddbe5cf	0.10737192
10	0x3ca3c181	0.01998973
11	0x3e0f6902	0.14004901
12	0x3e78d1e6	0.2429882
13	0x3e61a0d4	0.22034007
14	0xbea4267a	-0.32060605
15	0xbea5697f	-0.3230705
16	0xbc56c030	-0.0131073445
17	0xbe0f28ce	-0.1398041
18	0x3e6edf1c	0.23327297
19	0xbdb2cc06	-0.08730321
20	0x3d156f0b	0.036482852
21	0xbe3ae1b5	-0.18250163
22	0xbe1b658e	-0.15175459
23	0x3cb119c5	0.021618733
24	0x3e848f7f	0.2589073
25	0x3da52ad3	0.08064809
26	0xbd30548f	-0.04304939
27	0xbe227692	-0.15865543
28	0xbd985845	-0.07438711
29	0xbe6fb6f0	-0.23409629
30	0x3e8ae0eb	0.27124724
31	0xbe9778cd	-0.2958435
32	0x3e3f1128	0.18658888
33	0xbe94a37a	-0.29030973
34	0x3e6f9fc1	0.23400785
35	0xbe05294b	-0.13004033
36	0xbe9c97af	-0.30584475
37	0xbe2cd09c	-0.16876453
38	0xbe0500cc	-0.12988585
39	0x3de9291c	0.11384794
40	0x3dbc6114	0.09198204
41	0xbe90b2dc	-0.2826146
42	0x3d20ae8e	0.03922897
43	0xbd75fa81	-0.060053352
44	0x3d597feb	0.053100508
45	0xbe25e086	-0.1619893
46	0xbdd8e7c7	-0.10591083
47	0x3d94ea25	0.07271222
48	0x3e137e7d	0.1440372
49	0xbe9667fd	-0.29376212
50	0x3d2ff7f6	0.042961083
51	0xbd0ad5e5	-0.033895392
52	0x3e9b0500	0.30277252
53	0xbe8cfad8	-0.2753513
54	0x3d2dd37b	0.04243801
55	0x3dc0a7ad	0.094069816
56	0xbc369698	-0.011144303
57	0xbd816d27	-0.06319647
58	0xbd0454bd	-0.032307375
59	0xbdcf6f15	-0.10128609
60	0x3c8e6036	0.017379861
61	0x3d6d8ea7	0.057997372
62	0xbe3fd808	-0.18734753
63	0x3d684ad4	0.056711987
64	0xbe98a4bf	-0.2981319
65	0x3dcf6b30	0.10127866
66	0x3da51940	0.08061457
67	0xbd1f5038	-0.038894862
68	0xbcd4abf5	-0.025960902
69	0xbe7206dc	-0.23635429
70	0x3e5ddb81	0.21665765
71	0x3e3d6cf0	0.18498588
72	0xbe0c5eed	-0.13708086
73	0x3ddf0b6a	0.10890849
74	0xbe36ee0f	-0.1786425
75	0x3caffa0c	0.021481536
76	0x3e00f56c	0.12593621
77	0xbdc35ecd	-0.09539566
78	0xbe55049b	-0.20802538
79	0x3e347109	0.17621244
80	0x3e297682	0.16549113
81	0xbdafa522	-0.085764185
82	0xbd96758c	-0.07346639
83	0xbe2a7d1f	-0.16649292
84	0x3e69ef6d	0.2284524
85	0xbe9add40	-0.30246925
86	0x3dac484f	0.08412229
87	0xbde837ec	-0.11338791
88	0xbe4a3971	-0.19748475
89	0x3db7415f	0.089480154
90	0xbe573f9f	-0.21020363
91	0x3e79c0f1	0.24390008
92	0x3d95e5d8	0.0731923
93	0x3cd1438b	0.025544902
94	0xbe880da0	-0.26572895
95	0xbe45d6e1	-0.19320251
96	0x3d2ea587	0.042638328
97	0x3e4d8a62	0.2007232
98	0xbd9b1969	-0.07573206
99	0xbdf3dd17	-0.11907404
100	0xbe2be9db	-0.16788428
101	0x3e1a26eb	0.15053909
102	0x3d325751	0.043540303
103	0x3cd7cdd1	0.026343258
104	0x3d6a8b9a	0.05726204
105	0x3d9ab52c	0.07554087
106	0xbe95ea63	-0.29280385
107	0xbdb656d8	-0.08903283
108	0xbdb6ed5e	-0.08931993
109	0x3cc7a4c0	0.024370551
110	0xbe758a23	-0.23978476
111	0x3e7e629e	0.24842307
112	0x3e8a4ea6	0.2701313
113	0x3e66f3e1	0.2255397
114	0xbb5c928d	-0.0033656687
115	0xbd72e9f7	-0.059305158
116	0xbda00d0c	-0.078149885
117	0x3e610ab7	0.21976744
118	0x3e51440b	0.20436113
119	0xbe25c629	-0.16188873
120	0x3dbe4f0e	0.09292422
121	0xbd6711af	-0.05641335
122	0xbe62c58f	-0.22145675
123	0x3e734cb5	0.2375973
124	0x3de91ea0	0.113827944
125	0x3e673a19	0.22580756
126	0xbe96d14b	-0.29456553
127	0xbdda4d21	-0.106592424
128	0xbd068af0	-0.032847345
129	0x3e72af1a	0.23699608
130	0x3e3ac8e5	0.18240698
131	0x3e9d03aa	0.30666858
132	0x3e6f86a2	0.23391202
133	0x3e9bd49b	0.30435643
134	0xb9c3f6e4	-0.00037377246
135	0x3c853e6d	0.016265118
136	0xbd140212	-0.036134787
137	0x3dfb3d02	0.12267496
138	0xbe09156f	-0.13387083
139	0x3dface33	0.12246361
140	0x3e7b4627	0.2453848
141	0xbc194cf3	-0.009356725
142	0xbd4c8676	-0.04993292
143	0xbe3c1f74	-0.18371373
144	0x3e38ceef	0.18047689
145	0x3c8f2f25	0.017478535
146	0x3d854fdb	0.06509372
147	0xbe1a1fee	-0.15051243
148	0xbe1f4707	-0.15554439
149	0xbe6beb7c	-0.23039049
150	0x3e906ec6	0.28209513
151	0x3e1b9cee	0.15196583
152	0xbe7de7d0	-0.2479546
153	0xbdf0e009	-0.11761481
154	0x3e8a6214	0.27027953
155	0xbc8b8bd6	-0.017034452
156	0x3e696ab4	0.2279461
157	0xbe3ee181	-0.1864071
158	0xbdcf3515	-0.101175465
159	0x3cba5c03	0.022748953
160	0x3e9238b2	0.2855888
161	0xbe07594c	-0.13217658
162	0x3dc165c8	0.09443241
163	0x3e592073	0.21203785
164	0x3d3a6d21	0.04551423
165	0x3db9278b	0.09040745
166	0x3dd0269f	0.101636164
167	0xbe0e8b80	-0.13920403
168	0xbc636d0a	-0.013880977
169	0x3d2420dd	0.040070403
170	0xbd7ee97a	-0.06223438
171	0x3e3fe1b0	0.18738437
172	0xbe437dae	-0.19090912
173	0xbe097c9e	-0.13426444
174	0xbe1f3c51	-0.15550353
175	0x3e1b4c7d	0.15165897
176	0x3d39fed8	0.045409054
177	0xbdf4f38f	-0.119605176
178	0x3e1d730a	0.15375915
179	0xbe0480ed	-0.12939806
180	0xbe82ab06	-0.25521106
181	0xbe978ec5	-0.29601112
182	0xbe775d74	-0.24156743
183	0xbe98f7d1	-0.2987657
184	0xbe129c9c	-0.14317554
185	0xbe863fe5	-0.26220623
186	0xbe959e3d	-0.2922229
187	0x3e81899f	0.2530031
188	0xbde8d507	-0.11368757
189	0x3e96078a	0.29302627
190	0x3e63b415	0.22236665
191	0xbe7e09f4	-0.24808484
192	0xbe174d9d	-0.14775701
193	0xbe82f602	-0.25578314
194	0xbe811aee	-0.25215858
195	0x3d946d1d	0.07247374
196	0xbe927245	-0.28602806
197	0xbc69ae6b	-0.014262776
198	0x3d0d29b9	0.034463618
199	0xbe9b37f7	-0.30316135
200	0xbe4325a7	-0.19057332
201	0xbe73f672	-0.2382448
202	0x3da68057	0.08129948
203	0x3e80cb60	0.25155163
204	0xbe9b5194	-0.30335677
205	0xbe923ef6	-0.2856366
206	0xbea59d63	-0.3234664
207	0xbe23c3a1	-0.15992595
208	0x3dd45278	0.10367292
209	0xbe304011	-0.1721194
210	0x3e583748	0.21114838
211	0x3e6139a3	0.21994643
212	0x3e1146d3	0.14187174
213	0xbc99d9ca	-0.018780608
214	0x3d0cbccc	0.03435974
215	0x3e923297	0.28554222
216	0x3e61d4a4	0.22053772
217	0xbdfd4f30	-0.123686194
218	0xbc80b386	-0.015710603
219	0xbd81a095	-0.06329457
220	0xbc05df97	-0.008170984
221	0x3d8252ed	0.06363473
222	0x3e314bf6	0.17314133
223	0x3e99e762	0.30059344
224	0x3e528ec6	0.20562276
225	0x3dbceade	0.09224485
226	0xbe7b60d3	-0.24548654
227	0xbe9f5c7c	-0.31125247
228	0x3dc21144	0.094759494
229	0x3e88c04e	0.26709217
230	0x3d30d492	0.043171473
231	0xbe5aab60	-0.21354437
232	0x3e908c11	0.28231862
233	0xbd802aee	-0.06258188
234	0x3ced8a04	0.028996475
235	0xbdbda44c	-0.09259853
236	0x3e425767	0.18978654
237	0xbe6fc5d3	-0.23415308
238	0x3e590442	0.2119303
239	0x3e1997eb	0.14999358
240	0xbdd32eb3	-0.103116415
241	0x3e38b1af	0.18036531
242	0xbe97d95a	-0.29658014
243	0x3d1c6d95	0.038190443
244	0xbe4f8715	-0.20266373
245	0x3de4db77	0.11174672
246	0xbe8ceb19	-0.27523115
247	0xbd3d36ac	-0.046194717
248	0x3e45d0e1	0.19317962
249	0xbe1d9d8c	-0.1539213
250	0x3e2055cb	0.15657727
251	0xbe9c0c83	-0.30478296
252	0x3e370eab	0.17876689
253	0x3e5923dd	0.21205087
254	0x3e8c2e41	0.2737904
255	0xbe0e7f5e	-0.13915774

conv1.bias f4 [32]
0	0x3e894fbe	0.2681865
1	0x3e347683	0.17623334
2	0x3e825655	0.2545649
3	0x3d6fb762	0.058524497
4	0x3e0fc226	0.14038906
5	0xbda66be5	-0.08126048
6	0x3dd8ebcf	0.10591852
7	0x3e150fd8	0.14556825
8	0x3e777f92	0.24169758
9	0x3db85b30	0.09001768
10	0xbe2625cb	-0.16225354
11	0xbe24527a	-0.16047087
12	0xbd8c9952	-0.06865181
13	0x3e0aa0d2	0.1353791
14	0x3e71d098	0.23614728
15	0x3e3331d7	0.17499481
16	0x3db8e21d	0.09027503
17	0x3d0253da	0.03181825
18	0x3cad0b48	0.021123543
19	0x3e893282	0.26796347
20	0xbd82185c	-0.063523024
21	0x3e5e8a50	0.2173245
22	0xbe9fa866	-0.31183165
23	0x3e6e9d42	0.23302177
24	0x3e975542	0.29557234
25	0xbde3ed05	-0.11129192
26	0xbd92325f	-0.07138514
27	0xbc8dc70d	-0.017306829
28	0x3e0a071d	0.13479276
29	0x3e1cc2c8	0.15308678
30	0xbe34b0c2	-0.17645553
31	0xbcf43b02	-0.029813293

bn1.weight f4 [32]
0	0x3f81d246	1.0142295
1	0x3f824e12	1.0180075
2	0x3f7cb7a8	0.9871774
3	0x3f80ffe9	1.0078098
4	0x3f812960	1.0090752
5	0x3f7f2d1b	0.996782
6	0x3f7e45ab	0.99325055
7	0x3f7df853	0.9920704
8	0x3f7f03db	0.9961526
9	0x3f800dab	1.0004171
10	0x3f807990	1.0037098
11	0x3f7e27a4	0.99279237
12	0x3f7c3fa9	0.9853464
13	0x3f7d7d7d	0.99019605
14	0x3f8290f7	1.020049
15	0x3f81c1ec	1.0137305
16	0x3f7c24d8	0.9849372
17	0x3f81d43e	1.0142896
18	0x3f81a431	1.0128232
19	0x3f80dd48	1.006753
20	0x3f7df95d	0.99208623
21	0x3f7e8331	0.9941893
22	0x3f819b32	1.0125487
23	0x3f7cafe6	0.987059
24	0x3f8043e4	1.0020719
25	0x3f7d499c	0.98940444
26	0x3f80df20	1.0068092
27	0x3f7bc0a4	0.9834082
28	0x3f81a3f3	1.0128158
29	0x3f7bec45	0.98407394
30	0x3f82ddb2	1.0223906
31	0x3f7d9e1e	0.9906939

bn1.bias f4 [32]
0	0xbc49276c	-0.012277465
1	0x3cccb635	0.024989227
2	0xbb3db86c	-0.0028949035
3	0xbb9a9a5c	-0.004718108
4	0x3c572f0d	0.013133776
5	0x3c1bc465	0.009507273
6	0xbc4a3a94	-0.012343068
7	0x3c90d1cb	0.017678162
8	0xbc0d59d8	-0.008627377
9	0x3b54e4f9	0.003248511
10	0x3b4c8f93	0.0031213507
11	0xbbbf425e	-0.005836769
12	0x3b14a292	0.0022679907
13	0xbc1a489a	-0.009416724
14	0x3bacc5db	0.0052726096
15	0x3c60bfd6	0.013717612
16	0xbc174c9b	-0.009234573
17	0xbc5ddcbe	-0.013541399
18	0x3b76db92	0.0037667495
19	0x3b433179	0.0029784127
20	0x3c311c5d	0.010809985
21	0xbb3b6d71	-0.0028599168
22	0x3bfbd57c	0.0076853614
23	0xbbea1590	-0.0071436837
24	0x3aec2889	0.0018017452
25	0xbb5b0cac	-0.00334243
26	0x3c0b1553	0.008488971
27	0xbc07e33e	-0.008293925
28	0x3a9f93f7	0.0012174834
29	0xbc07b4a9	-0.008282819
30	0x3c37845c	0.0112009905
31	0x3bca48fa	0.0061732503

bn1.running_mean f4 [32]
0	0x3e87dd4c	0.26536024
1	0x3e38280f	0.17984031
2	0x3e8381a2	0.2568484
3	0x3d7a954c	0.061177537
4	0x3e1036f8	0.14083469
5	0xbda11310	-0.07864964
6	0x3ddd0155	0.1079127
7	0x3e18a808	0.14907849
8	0x3e791816	0.24325594
9	0x3dba2a63	0.09090116
10	0xbe241856	-0.16024908
11	0xbe2311cf	-0.15924762
12	0xbd8d66b1	-0.069043525
13	0x3e119f0c	0.14220828
14	0x3e78173e	0.24227616
15	0x3e36fbfd	0.17869563
16	0x3dc01bde	0.09380315
17	0x3d007748	0.031363755
18	0x3c2af9b4	0.01043551
19	0x3e8a2dc0	0.2698803
20	0xbd81c6a5	-0.063367166
21	0x3e645336	0.22297367
22	0xbe9e9a13	-0.30976924
23	0x3e6be89d	0.23037954
24	0x3e9732ca	0.29530936
25	0xbde4f542	-0.11179592
26	0xbd82b7d4	-0.06382719
27	0xbc8042f4	-0.015656926
28	0x3e0757c4	0.13217074
29	0x3e175804	0.14779669
30	0xbe388573	-0.18019657
31	0xbc9cc063	-0.019134706

bn1.running_var f4 [32]
0	0x3fe5fe48	1.7968225
1	0x3c5752c3	0.0131422905
2	0x3e422978	0.18961132
3	0x3e8b71e1	0.2723532
4	0x3e78b1e1	0.24286605
5	0x3bf7dc32	0.007564091
6	0x3e5cb567	0.21553575
7	0x3d4a3d41	0.049374823
8	0x3e0fbd6c	0.14037102
9	0x3d9d9c42	0.076958194
10	0x3d8c3e76	0.06847851
11	0x3ec5bb8a	0.38619643
12	0x3d22fb19	0.039790247
13	0x3f9aad32	1.2084105
14	0x3dbe6150	0.09295905
15	0x3db309b7	0.08742087
16	0x3eaa7f45	0.33300224
17	0x3d835ddc	0.06414387
18	0x3feb5712	1.8385947
19	0x3fabb1d1	1.341364
20	0x3fbb8467	1.4649781
21	0x3f475e3b	0.7787816
22	0x3ec52162	0.38502032
23	0x3dbe3b6f	0.0928868
24	0x3e98f867	0.29877016
25	0x3f287f3b	0.6581914
26	0x3e801759	0.25017813
27	0x3e788e17	0.24272953
28	0x3eb7a41f	0.35867402
29	0x3e94c84e	0.2905907
30	0x407f6e45	3.9911053
31	0x3d95386d	0.07286153

conv2.weight f4 [64, 32, 5]
0	0xbd458ca4	-0.04822983
1	0xbd1f839a	-0.038943864
2	0xbcfc6f74	-0.030814864
3	0xbd8e8c0f	-0.06960308
4	0x3cb67d59	0.022276567
5	0x3cfbc02d	0.030731285
6	0xbd81eab2	-0.06343593
7	0xbcaa78df	-0.020809589
8	0x3b3319c4	0.002732859
9	0x3d3ae1cd	0.045625497
10	0x3d1596d0	0.03652078
11	0xbd6c1b59	-0.05764327
12	0xbd88fbc6	-0.06688647
13	0xbd0d9c28	-0.03457275
14	0x3d99de71	0.075131305
15	0xbd3cebc7	-0.046123292
16	0xbc4fa349	-0.012673208
17	0x3c560f77	0.013065211
18	0xbda6ad77	-0.081385545
19	0xbc03f931	-0.008055017
20	0xbd4538d1	-0.048149887
21	0xbd04e3bb	-0.032443743
22	0xbcad67ee	-0.021167722
23	0x3bd60b6f	0.0065321247
24	0x3d1d1c7d	0.038357247
25	0x3ca67ab7	0.020322187
26	0xbd3e5a7b	-0.046473008
27	0x3d9d22ba	0.07672639
28	0xbd7d253e	-0.061803095
29	0x3d353b1b	0.04424582
30	0xbd0cd247	-0.034380224
31	0xbd9944c9	-0.07483823
32	0x3d6ac522	0.057316907
33	0x3d39fa52	0.04540474
34	0x3bc9ea1d	0.0061619417
35	0xbd52cd68	-0.051465422
36	0xbc718b33	-0.01474266
37	0xbd81aa74	-0.063313395
38	0xbd916984	-0.07100204
39	0x3cc8a5b2	0.024493072
40	0xbc4dac74	-0.012553323
41	0xbcc78952	-0.024357472
42	0x3b3f548c	0.002919468
43	0xbd9076af	-0.07053887
44	0x3a92d10e	0.0011201219
45	0xbd330ba3	-0.04371227
46	0xbd8d021d	-0.06885169
47	0xbc51a8a4	-0.012796555
48	0x3ca39fa3	0.019973582
49	0x3c9a7cda	0.018858362
50	0xbda35f6d	-0.079771854
51	0x3d728fe7	0.059219267
52	0xbd6614cb	-0.056172173
53	0xbd7075cb	-0.058706086
54	0xbd8a3ad3	-0.06749501
55	0xbd83c504	-0.06434062
56	0x3cecb565	0.02889509
57	0xbbfe67e1	-0.007763848
58	0x3d99a283	0.075017
59	0x3d939961	0.07206989
60	0xbce2ca02	-0.027684215
61	0xbd9428eb	-0.07234367
62	0x3cf29441	0.029611709
63	0xbd533688	-0.051565677
64	0x3cf17a3b	0.02947723
65	0xbd60ce16	-0.05488404
66	0x3d24c132	0.040223308
67	0x3c8dee75	0.01732562
68	0xbd5ce53b	-0.05392955
69	0xbd7732ec	-0.060351297
70	0xbd791b86	-0.060817264
71	0x3a0b606e	0.00053167983
72	0xbcdf1b95	-0.027234832
73	0xba13103f	-0.0005610026
74	0x3d410472	0.04712338
75	0x3db19505	0.08671001
76	0xbcda18e3	-0.026623195
77	0x3d2956ce	0.04134255
78	0xbd86883d	-0.06568954
79	0x3d353862	0.044243224
80	0x3d5582d0	0.052126706
81	0x3d2c5c15	0.042080004
82	0x3c4d0f26	0.012515819
83	0xbd24358f	-0.04009014
84	0xbcd2ab6b	-0.025716504
85	0xbdb6d559	-0.089274116
86	0xbb702ec2	-0.0036648964
87	0x3c99ad6a	0.018759448
88	0xbd91839d	-0.07105181
89	0xbd02d373	-0.031939935
90	0x3caaa5e5	0.020831058
91	0xbb3c236b	-0.0028707634
92	0xbd89fbb5	-0.067374624
93	0x3cd4487f	0.025913475
94	0xbc9a4ec0	-0.018836379
95	0xbd3b230e	-0.045687728
96	0xbc4ba43d	-0.012429294
97	0x3d30a013	0.04312141
98	0x3d472a3a	0.048624255
99	0x3d263a37	0.04058286
100	0xbced5523	-0.02897126
101	0xbc3acee8	-0.011401869
102	0xbda0c207	-0.07849508
103	0xbd81a87a	-0.063309625
104	0xbd849c19	-0.06475086
105	0x3d853c7e	0.065056786
106	0xbb4b86e3	-0.003105574
107	0xbd17e251	-0.037081067
108	0xbd41b30f	-0.047289904
109	0xbd796414	-0.060886458
110	0xbd80c7f0	-0.06288135
111	0x3bd40871	0.006470733
112	0x3da7477d	0.08167932
113	0x3d58d56c	0.05293791
114	0xbd436cb2	-0.04771108
115	0xbcfbdba0	-0.030744374
116	0x3d86d5ae	0.06583725
117	0xbd40f5d9	-0.04710946
118	0xbd14b0e0	-0.036301494
119	0xbcd3dfa9	-0.025863485
120	0xbd785a59	-0.060633037
121	0xbcb3b54e	-0.021937039
122	0x3d630c01	0.05543137
123	0x3c8f9000	0.01752472
124	0x3c5ad3f0	0.013356194
125	0x3b445e7d	0.0029963546
126	0x3a3ce0a8	0.0007205107
127	0x3cc9ddca	0.02464189
128	0x3ccd2b2f	0.025045006
129	0x3d2717de	0.040794246
130	0x3d8dd8fb	0.06926151
131	0x3d847162	0.064669386
132	0x3cabac5a	0.020956207
133	0xbd2c427a	-0.042055584
134	0xbc8f9d1a	-0.017530967
135	0x3d880559	0.06641645
136	0x3cbd6d4e	0.02312341
137	0xbc5938e9	-0.013258197
138	0x3d14bc2b	0.036312263
139	0xbd04d1e2	-0.032426722
140	0xbd94b44a	-0.0726095
141	0xbd07aeaf	-0.033125576
142	0xbd6dbdbe	-0.05804228
143	0x3d24a1f1	0.0401935
144	0xbcb00b4a	-0.021489758
145	0x3d69c8b5	0.057076175
146	0x3d8cf44e	0.06882535
147	0x3d49b6eb	0.04924671
148	0x3d5e134e	0.05421763
149	0xbd118e26	-0.035535954
150	0x3d3a9386	0.045550846
151	0xbd82d22e	-0.06387745
152	0xbd649318	-0.055804342
153	0x3d74821b	0.05969439
154	0xbd45a092	-0.048248835
155	0x3c9b53a4	0.018960781
156	0x3d193d12	0.037411757
157	0xbd7994c8	-0.060932904
158	0xbd94a743	-0.07258465
159	0x3d94a7ee	0.072585925
160	0xbd3153f8	-0.04329297
161	0x3d403a66	0.046930693
162	0x3c24eacd	0.0100657465
163	0xbb95b94c	-0.0045692082
164	0xbbf97fd8	-0.007614117
165	0xbd9e5b2e	-0.07732235
166	0x3d8cf9c9	0.0688358
167	0x3d55f5ba	0.052236296
168	0xbd57d934	-0.052697375
169	0x3d586fae	0.05284088
170	0x3d0890d8	0.03334126
171	0x3d998e5c	0.07497856
172	0x3d839b91	0.06426156
173	0x3da1d13b	0.07901236
174	0x3d997258	0.074925125
175	0x3c2e40ee	0.010635598
176	0xbd8cb5a6	-0.06870584
177	0xbd5c93c8	-0.053851873
178	0xbd9a0e6d	-0.07522283
179	0x3d5b453b	0.05353282
180	0xbd027659	-0.031851146
181	0x3b26050f	0.0025332605
182	0x3c8db757	0.017299337
183	0x3da35106	0.07974438
184	0xbc449d57	-0.012000403
185	0x3c98481a	0.018589068
186	0xbc58e983	-0.013239267
187	0x3cff06e9	0.031131225
188	0x3beacc61	0.007165477
189	0xbdb78162	-0.08960225
190	0x3b10a860	0.0022073016
191	0xbc82d1e2	-0.01596922
192	0x3d598714	0.053107336
193	0x3c4c358c	0.012463938
194	0x3d7451ad	0.059648205
195	0xbda90a42	-0.0825391
196	0xbd665ba8	-0.056239754
197	0x3c74b9a2	0.014936836
198	0xbbbd027d	-0.005768119
199	0x3c880f94	0.01660899
200	0xbd46e2e6	-0.04855623
201	0x3d4a4397	0.049380865
202	0xbd074206	-0.03302195
203	0xbbc3a18c	-0.0059701856
204	0x3d871dd5	0.06597487
205	0xbd34c448	-0.0441325
206	0x3d3a0127	0.045411255
207	0xbd681822	-0.05666364
208	0x3c0ae70b	0.0084779365
209	0x3c360875	0.011110415
210	0x3b0b135f	0.0021221263
211	0xbd90829c	-0.07056162
212	0xbcbba76f	-0.022906987
213	0xbc2cb0fb	-0.010540242
214	0x3d740115	0.059571344
215	0x3d593aaa	0.053034462
216	0xbd97d62b	-0.07413896
217	0x3cd6a896	0.026203435
218	0xbd5916d6	-0.053000294
219	0x3c62d273	0.01384412
220	0x3d3a2cba	0.04545281
221	0xbdaf16f6	-0.08549301
222	0xbd7420e0	-0.059601665
223	0x3cdc482c	0.026889883
224	0x3d454a84	0.048166767
225	0x3d7b490a	0.061348952
226	0x3d5702df	0.052492972
227	0x3d417bb8	0.047237128
228	0x3bebb994	0.0071937535
229	0xbd278992	-0.04090268
230	0xbcde54c1	-0.027140023
231	0x3d1b8722	0.03797067
232	0x3d6459fd	0.055749882
233	0x3d1412b9	0.036150668
234	0xbc9b1916	-0.01893286
235	0xbda0df17	-0.07855051
236	0xbd05e72e	-0.032691173
237	0xbcb67668	-0.022273257
238	0x3c6bb69b	0.014386798
239	0xbd8f56e0	-0.06998992
240	0xbd0c1395	-0.034198362
241	0x3b0ed9ba	0.0021797256
242	0xbdc912a6	-0.0981801
243	0x3c476c4c	0.012171816
244	0x3d392bd9	0.045207832
245	0x3b995350	0.004679121
246	0xbd0aca96	-0.033884607
247	0xbcc78afd	-0.024358267
248	0x3cdef9d7	0.027218742
249	0xba8a1d13	-0.0010537229
250	0x3a1fcda4	0.00060960115
251	0xbd836ab8	-0.06416839
252	0x3c700f9d	0.01465216
253	0x3d994408	0.07483679
254	0xbd94d534	-0.07267228
255	0x3d1ea328	0.038729817

conv2.bias f4 [64]
0	0xbd722be6	-0.059123896
1	0xbc18fb77	-0.009337298
2	0xbbf0596d	-0.007334879
3	0xbbaa19c5	-0.0051910602
4	0x3a8cb953	0.0010736383
5	0x3d6441cd	0.055726815
6	0xbc82a9ab	-0.015950045
7	0x3c3bd6cd	0.011464787
8	0xbd60133e	-0.05470585
9	0xbd87f931	-0.06639326
10	0x3d9db749	0.077009745
11	0xbd2e3481	-0.04253054
12	0xbd8f652b	-0.07001718
13	0xbcef8474	-0.029237963
14	0xbd58e045	-0.052948255
15	0xbda6a8b5	-0.08137647
16	0xbd6434ff	-0.055714604
17	0xbcd1fd56	-0.025633495
18	0x3d0a8f3a	0.033827998
19	0xbd1d11d4	-0.03834708
20	0x3bb90d2d	0.0056473226
21	0xbd97f5a1	-0.07419897
22	0x3d80a683	0.062817596
23	0x3d4a8678	0.049444646
24	0xbd3c2a96	-0.04593905
25	0xbd857477	-0.065163545
26	0x3da75785	0.0817099
27	0xbd120889	-0.03565267
28	0xbd93015b	-0.07177993
29	0x3ce4db3e	0.027936574
30	0x3cf4328c	0.029809259
31	0xbd9a8cef	-0.07546412
32	0xbc1b0bba	-0.009463245
33	0xbd5a1a58	-0.05324778
34	0xb9c295a9	-0.0003711407
35	0x3d75b017	0.059982385
36	0xbc5d3131	-0.013500498
37	0x3d3e27c6	0.04642465
38	0xbd8d0339	-0.0688538
39	0x3d58cd8e	0.052930407
40	0xbd5728f3	-0.052529287
41	0xbd04dece	-0.032439046
42	0xbda65434	-0.08121529
43	0x3c29c90d	0.010362876
44	0xbd4494ba	-0.0479934
45	0xbc93267c	-0.017962687
46	0xbd8b9def	-0.06817233
47	0xbd678430	-0.05652255
48	0x3d021392	0.031756945
49	0x3c7f207c	0.01557171
50	0x3cce1ce7	0.025160266
51	0xbd0e8b21	-0.034800652
52	0x3cf95cc0	0.030439734
53	0xbd1aaeed	-0.03776448
54	0x3da9aa62	0.08284451
55	0x3d52d319	0.05147085
56	0xbd9dc0e0	-0.077028036
57	0xbd819e93	-0.06329074
58	0xbd7419aa	-0.059594788
59	0x3c84d348	0.016214028
60	0x3ad7a9a4	0.0016453755
61	0x3d8581ff	0.065189354
62	0x3da330bc	0.0796828
63	0x3d92af38	0.071623266

bn2.weight f4 [64]
0	0x3f7b770f	0.98228544
1	0x3f7b4c00	0.9816284
2	0x3f81b36b	1.0132879
3	0x3f7b3f7f	0.9814376
4	0x3f80b616	1.0055568
5	0x3f809d41	1.004799
6	0x3f7ca561	0.9868985
7	0x3f7ef10e	0.9958657
8	0x3f82243d	1.0167309
9	0x3f8005bc	1.000175
10	0x3f7cd2f2	0.98759377
11	0x3f7e72f9	0.99394184
12	0x3f7ce280	0.9878311
13	0x3f8080fd	1.0039364
14	0x3f7db94d	0.9911087
15	0x3f8277c3	1.0192798
16	0x3f80b0e0	1.0053978
17	0x3f7eb6e2	0.9949781
18	0x3f7f5a33	0.9974701
19	0x3f7eb6c6	0.9949764
20	0x3f832f8d	1.0248886
21	0x3f7f372a	0.9969355
22	0x3f7bafa3	0.98314875
23	0x3f8229c4	1.0168996
24	0x3f7a4743	0.97764987
25	0x3f7d4c10	0.9894419
26	0x3f80b80b	1.0056165
27	0x3f82bb62	1.0213435
28	0x3f82e923	1.0227398
29	0x3f7f826a	0.9980837
30	0x3f801cb6	1.0008762
31	0x3f7ec8f7	0.995254
32	0x3f80552c	1.0025992
33	0x3f7d29be	0.9889182
34	0x3f80d0cf	1.0063723
35	0x3f8102f9	1.0079032
36	0x3f81efeb	1.0151342
37	0x3f7ffc31	0.9999419
38	0x3f7a0e5c	0.9767816
39	0x3f82d8c6	1.0222404
40	0x3f7b708a	0.98218596
41	0x3f7df280	0.9919815
42	0x3f8066ab	1.0031332
43	0x3f7e3e06	0.9931339
44	0x3f7e9731	0.9944945
45	0x3f80f6ca	1.0075314
46	0x3f81dad6	1.0144908
47	0x3f7b04ce	0.98054206
48	0x3f790015	0.9726575
49	0x3f80eea3	1.0072826
50	0x3f7e7bb7	0.99407524
51	0x3f7f4345	0.9971202
52	0x3f7d044e	0.98834693
53	0x3f7e308b	0.9929282
54	0x3f8029bf	1.001274
55	0x3f7ef7f1	0.9959708
56	0x3f829230	1.0200863
57	0x3f7f58e0	0.9974499
58	0x3f80c9cc	1.0061584
59	0x3f836b2c	1.0267081
60	0x3f7f2193	0.99660605
61	0x3f7fe761	0.9996243
62	0x3f7ce2fe	0.9878386
63	0x3f7f382b	0.9969508

bn2.bias f4 [64]
0	0xbc577a0f	-0.01315166
1	0xbca349a5	-0.019932577
2	0x3c71500e	0.014728559
3	0xbbb76299	-0.0055964706
4	0xbc59faf6	-0.013304463
5	0x3c59813e	0.013275443
6	0xbcbbf3bb	-0.022943368
7	0x3ac71f73	0.0015191868
8	0x3c317a4c	0.0108323805
9	0x3bbf33f9	0.005835053
10	0xbc2b2074	-0.010444749
11	0x3723d71c	9.765641e-06
12	0xbc7f8de3	-0.015597793
13	0xbbeab512	-0.0071626985
14	0xbc755275	-0.014973273
15	0x3c9bfc17	0.019041104
16	0x3ca01f7b	0.019546261
17	0xbbceb2b7	-0.0063079256
18	0x3c3a82a7	0.011383689
19	0xbad55db6	-0.0016278538
20	0x3ca5fa23	0.020260876
21	0x3b6018c0	0.003419444
22	0xbc9da5a4	-0.019244023
23	0x3cbde2e1	0.023179473
24	0xbc9e779f	-0.01934415
25	0xbba5ed54	-0.005063692
26	0x3c027ebf	0.007964789
27	0x3c3ebda7	0.011641896
28	0x3ca0a55f	0.019610105
29	0x3a281386	0.00064116006
30	0x3c95f250	0.01830402
31	0x3b95b6a0	0.0045688897
32	0x3c3af278	0.011410348
33	0xbc6738b9	-0.014112645
34	0x3ba39325	0.004991906
35	0x3c654c64	0.013995264
36	0x3c00611b	0.007835652
37	0xbbd5cc8d	-0.0065246285
38	0xbc84529f	-0.016152678
39	0x3d025ffd	0.031829823
40	0xbc28620e	-0.010277284
41	0xbc17afd1	-0.0092582265
42	0x3b882cf3	0.004155749
43	0xbc239dde	-0.009986369
44	0xbc129b4f	-0.008948161
45	0xbb299178	-0.002587406
46	0x3c670a1c	0.014101531
47	0xbc830a53	-0.015996134
48	0xba44108a	-0.0007479271
49	0xbba01fd1	-0.0048866053
50	0xbb58f0a4	-0.0033102417
51	0xbaae11f6	-0.0013280499
52	0xbc175787	-0.009237177
53	0xbbddb8a4	-0.0067663956
54	0xbc599fa7	-0.013282693
55	0xbb6b76bd	-0.0035928928
56	0x3cd13c5f	0.025541482
57	0xbc13f438	-0.009030394
58	0x3b0d121e	0.0021525691
59	0x3c7616ab	0.015020053
60	0xbbb52407	-0.0055279764
61	0x3b886f6d	0.0041636736
62	0xbbe57d96	-0.0070034964
63	0x3c28e956	0.010309538

bn2.running_mean f4 [64]
0	0xbf241874	-0.6409981
1	0xbe844f02	-0.25841528
2	0xbf715c52	-0.94281495
3	0xbed3153c	-0.41227138
4	0x3eccb19a	0.3997925
5	0x3e078dea	0.1323773
6	0x3e22ae80	0.15886879
7	0xbbf84355	-0.007576386
8	0xbf6bcad5	-0.9210637
9	0x3f12da7a	0.5736462
10	0xbd1bf2da	-0.0380734
11	0xbef1153e	-0.4708652
12	0xbea4efbf	-0.32214162
13	0x3f12ca01	0.57339483
14	0xbdcf4b35	-0.101217665
15	0xbf68d819	-0.9095474
16	0x3ef1b347	0.4720709
17	0x3e8026c1	0.25029567
18	0xbbee0e4c	-0.007264888
19	0xbece1afb	-0.4025496
20	0x3f010480	0.5039749
21	0xbf469ad6	-0.7758001
22	0xbf22e023	-0.63623255
23	0x3f67d39c	0.90557265
24	0xbe95dd85	-0.29270568
25	0xbf2a5b95	-0.66545993
26	0xbec6ed7a	-0.38853055
27	0x3ecbef19	0.39830855
28	0x3ed90ecc	0.42394102
29	0x3f418b3f	0.756031
30	0x3eae0fea	0.33996516
31	0xbf5f129a	-0.8713776
32	0x3dae4863	0.085099004
33	0xbe84bceb	-0.25925383
34	0xbd575339	-0.0525696
35	0xbc718194	-0.0147403665
36	0x3e8f9d86	0.28049868
37	0x3ee9bd10	0.45652056
38	0x3dc59367	0.096472554
39	0x3edf99d4	0.4367205
40	0xbf652441	-0.89508444
41	0x3c433224	0.01191381
42	0xbe93b763	-0.2885085
43	0xbde7b033	-0.11312904
44	0x3efdf378	0.49599814
45	0x3ecb673e	0.39727205
46	0x3d9d4892	0.07679857
47	0xbeca0e46	-0.39464015
48	0xbf2540d2	-0.6455203
49	0x3eca6214	0.39527953
50	0xbd785377	-0.060626473
51	0xbea6cca8	-0.32578015
52	0x3ec43928	0.38324857
53	0x3ecb2caa	0.39682513
54	0x3e5f5ff1	0.21813942
55	0xbd30234f	-0.043002423
56	0xbdb7670e	-0.08955203
57	0x3ee4e063	0.44702443
58	0x3eb06097	0.34448692
59	0x3f4d384a	0.80164015
60	0x3b110937	0.0022130737
61	0xbf05fddd	-0.5234049
62	0xbf09c479	-0.5381542
63	0x3f101624	0.56283784

bn2.running_var f4 [64]
0	0x3f2e6084	0.6811602
1	0x3f8047bf	1.0021895
2	0x3e490c79	0.19633664
3	0x3f6465c6	0.89217794
4	0x3f864dc4	1.0492482
5	0x3f14ef26	0.5817741
6	0x3f69375d	0.911001
7	0x3fa1974c	1.2624297
8	0x3e11aac0	0.14225292
9	0x3fc87f34	1.5663819
10	0x3e6bc3e9	0.23023953
11	0x3e0690fd	0.13141246
12	0x3e9c248e	0.3049664
13	0x3e8b4865	0.2720367
14	0x3f4c05e3	0.7969648
15	0x3e37176c	0.17880028
16	0x3f4c2895	0.79749423
17	0x3e2add2c	0.16685933
18	0x3f68aaa9	0.90885407
19	0x3f07615c	0.52882934
20	0x3e4c3622	0.19942525
21	0x3f189079	0.5959545
22	0x3ea6f2b0	0.3260703
23	0x3f609499	0.8772674
24	0x3f2d3f2f	0.67674536
25	0x3fdb3f8a	1.7128766
26	0x3e532dbd	0.20622917
27	0x3e276bda	0.16349736
28	0x3df5fc73	0.120110415
29	0x3f154f3c	0.5832403
30	0x3e8885e7	0.2666466
31	0x3e38dda8	0.18053305
32	0x3eefd7f9	0.46844462
33	0x3da3c27d	0.0799608
34	0x3eec55cc	0.46159208
35	0x3e962b86	0.2933008
36	0x3f01372d	0.50474817
37	0x3edf7e89	0.43651226
38	0x3e25c06f	0.16186689
39	0x3e3f431d	0.18677945
40	0x3e1db496	0.1540092
41	0x3f623a37	0.8837008
42	0x3e75096a	0.23929372
43	0x3e91435e	0.2837171
44	0x3f03a0cb	0.51417226
45	0x3e950f20	0.29113102
46	0x3e23ad4a	0.15984073
47	0x3e8459f9	0.25849894
48	0x3e9bd149	0.3043311
49	0x3e93b3dd	0.28848162
50	0x3e4d151d	0.20027585
51	0x3de6c8f7	0.112688
52	0x3f4c5e5b	0.79831475
53	0x3ea7d338	0.32778335
54	0x3eb24118	0.34815288
55	0x3ef3baf4	0.4760357
56	0x3dab4c8b	0.08364209
57	0x3f123000	0.5710449
58	0x3e98eb3c	0.2986697
59	0x3df6d0e8	0.120515645
60	0x3ec3db8b	0.38253435
61	0x3e0df310	0.13862252
62	0x3ed08ed5	0.40733972
63	0x3f24b545	0.64339095

conv3.weight f4 [128, 64, 3]
0	0x3d3f5f21	0.04672158
1	0xbd1351ed	-0.035966802
2	0xbcfc57ec	-0.030803643
3	0x3c002c64	0.007823084
4	0x3cce5f3c	0.025191896
5	0x3d8ce209	0.0687905
6	0xbd3a8f39	-0.045546744
7	0x3d4ae6cb	0.049536508
8	0xbd81c6d9	-0.06336755
9	0x3d75297b	0.059854012
10	0xbd19389a	-0.037407495
11	0x3d7cf28d	0.061754752
12	0x3cffedcc	0.03124132
13	0x3d3f83ff	0.04675674
14	0xbca8af58	-0.020591423
15	0x3b133b45	0.0022465747
16	0xbda4a820	-0.0803988
17	0xbd75dbda	-0.06002412
18	0xbc0baf7f	-0.008525728
19	0xbc61dd01	-0.013785602
20	0x3c420c54	0.01184376
21	0xbcef9257	-0.029244585
22	0xbd19d2a8	-0.037554413
23	0xbd457216	-0.048204504
24	0x3cbd8b41	0.02313769
25	0xbc42f09b	-0.011898185
26	0xbd936e21	-0.0719874
27	0x3ceb4f0c	0.028724216
28	0xbda6a97e	-0.08137797
29	0x3adcbd21	0.0016841033
30	0x3d201906	0.039086364
31	0xbc00ba4c	-0.007856917
32	0xbca93e86	-0.020659696
33	0xbcb8771e	-0.022517737
34	0x3d4af3db	0.049548965
35	0xbca7653f	-0.02043402
36	0x39694086	0.00022244648
37	0xbccb039e	-0.024781998
38	0x3d93e09c	0.07220575
39	0xbc844b4f	-0.016149191
40	0xbd8325c4	-0.064036876
41	0xbc6bf795	-0.01440229
42	0xbd5430dc	-0.05180441
43	0x3d06c235	0.032900054
44	0xbd0a5517	-0.033772554
45	0xbb962651	-0.0045822044
46	0xbc3c1736	-0.011480143
47	0xbd3716c3	-0.04469944
48	0xbd27e533	-0.040990066
49	0xbd36c1dc	-0.044618472
50	0xbcbb1b54	-0.02284018
51	0x3d393423	0.045215737
52	0xbd5127f5	-0.051063497
53	0x3d4cd62c	0.050008938
54	0x3c9ea2af	0.019364683
55	0x3d2c862d	0.042120147
56	0x3c8958e8	0.016766027
57	0x3c6cd3a5	0.014454757
58	0xbc348e16	-0.011020204
59	0xbcaaa55f	-0.020830808
60	0x3d4f6dba	0.050641753
61	0xbd8ec05b	-0.06970283
62	0xbd567bf0	-0.05236429
63	0x3d8a49a7	0.06752329
64	0xbd894d79	-0.0670423
65	0x3d437522	0.04771913
66	0xba01c8a3	-0.00049508567
67	0xbc82c19c	-0.01596146
68	0x3c591a3f	0.013250886
69	0xbd713ce5	-0.058895964
70	0x3d0775eb	0.03307144
71	0xbc77cbd1	-0.015124277
72	0xbd82b8f3	-0.063829325
73	0x3d5de9c8	0.05417803
74	0x3d544e4e	0.05183249
75	0x3af2778a	0.001849876
76	0x3ccbb421	0.024866166
77	0xbbc63001	-0.006048203
78	0x3d7cce7c	0.061720356
79	0x3d79b309	0.060961757
80	0xbcc91d0f	-0.024549989
81	0xbc6dd3c4	-0.014515821
82	0x3bf937a5	0.0076055103
83	0xbd85b4d2	-0.06528629
84	0xbd936956	-0.071978256
85	0xbc55b065	-0.013042544
86	0x3cb5689f	0.022144614
87	0x3ca4e9f4	0.020131089
88	0x3d180beb	0.03712074
89	0x3d1c4e58	0.038160652
90	0x3bd748f2	0.006569975
91	0xbd301dc1	-0.042997126
92	0xbcaa1c09	-0.020765321
93	0xbcf2fd8a	-0.029661912
94	0xbd45a69b	-0.04825459
95	0xbda247a5	-0.07923821
96	0xbd85a469	-0.065254994
97	0x3d84ddff	0.06487655
98	0xbd06ffc3	-0.032958757
99	0x3d4db083	0.050217163
100	0xbca5ea5a	-0.02025335
101	0x3d322fb5	0.04350253
102	0x3d7abb99	0.061214063
103	0xbc0e5b25	-0.008688723
104	0x3cd5745c	0.026056461
105	0x3c3927d6	0.0113010015
106	0x3cad5977	0.021160824
107	0xbd8a09e6	-0.06740169
108	0x3c763985	0.015028362
109	0x3c582a30	0.013193652
110	0x3d579c30	0.052639186
111	0xbd5119bc	-0.051049933
112	0xbda74b73	-0.08168688
113	0x3da45211	0.080234654
114	0x3d43a1a8	0.04776159
115	0xbc23e4cb	-0.010003279
116	0xbbc111a3	-0.005891995
117	0xbd2bf0c9	-0.041977677
118	0xbd456a9e	-0.04819738
119	0x3d6007bf	0.054694887
120	0xbd449da8	-0.048001915
121	0xbd8407e4	-0.064468175
122	0xbc581f45	-0.013191049
123	0xbcdb9697	-0.026805205
124	0x3c358d55	0.011081059
125	0xbafc8a26	-0.0019267246
126	0x3d6974df	0.056996223
127	0xbd4f2f64	-0.050582305
128	0x3ca412a6	0.020028424
129	0xbd95522f	-0.07291066
130	0xbc30d131	-0.010792063
131	0x3d95762c	0.0729793
132	0xbd90f45d	-0.070778586
133	0x3c34fc2d	0.0110464515
134	0x3d7880fa	0.060669877
135	0xbb0a938f	-0.002114508
136	0x3d258bd8	0.04041657
137	0x3c6a8a6f	0.014315232
138	0x3ce0b3cc	0.027429484
139	0x3ceab092	0.028648648
140	0xbcf50db6	-0.029913764
141	0xbd2896bf	-0.041159388
142	0xbb6f7268	-0.0036536697
143	0x3dacef57	0.08444088
144	0xbceb47f9	-0.028720843
145	0xbccdcdc8	-0.025122538
146	0xbbd0d408	-0.0063729323
147	0x3c882503	0.016619211
148	0x3c4d1f64	0.012519691
149	0x3d8cef55	0.068815865
150	0x3ceb07fb	0.028690329
151	0x3d0718f0	0.032982767
152	0x3d9a1af1	0.0752467
153	0xbcbfcdb2	-0.023413513
154	0xbd044e8c	-0.03230147
155	0x3b8f6f22	0.0043772617
156	0x3d7a240e	0.06106954
157	0x3c68aeee	0.014201863
158	0xbd272e88	-0.04081586
159	0x3d863a4b	0.06554087
160	0xbd26ef48	-0.04075554
161	0xbd2e8b7c	-0.04261349
162	0xbcd7f339	-0.026361095
163	0xbd111cdc	-0.035427913
164	0xbc5e550e	-0.013570083
165	0x3d0390c0	0.032120466
166	0xbd0073d6	-0.03136047
167	0xbb643cee	-0.0034826356
168	0xbd6dc36a	-0.05804769
169	0xbd0b2c91	-0.03397805
170	0x3d484522	0.048894055
171	0x3b9de862	0.004818962
172	0x3d3bcbe6	0.04584875
173	0xbca12126	-0.019669127
174	0x3d1c50a8	0.038162857
175	0x3d5fc748	0.05463341
176	0xbd905f7b	-0.070494615
177	0xbc50c060	-0.012741178
178	0x3d2e72be	0.042589895
179	0xbd73367a	-0.059378125
180	0x3c693305	0.014233355
181	0x3d99be63	0.075070165
182	0xbd75b948	-0.05999115
183	0x3d2ae245	0.041719694
184	0xbd306d02	-0.043072708
185	0xbda9e801	-0.08296204
186	0x3c7d0fb7	0.015445641
187	0xbbe984cc	-0.0071264263
188	0xbcc4604e	-0.023971703
189	0xbdad0122	-0.08447482
190	0xbc912791	-0.017719062
191	0xbc9acb75	-0.018895844
192	0xbd2be359	-0.041964862
193	0xbd7519ed	-0.059839178
194	0xbb9560b4	-0.004558647
195	0x3cb78010	0.022399932
196	0xbd1d581f	-0.038414117
197	0xbd54730a	-0.051867522
198	0x3bab6a6a	0.0052311914
199	0xbd620294	-0.05517824
200	0xbd057c51	-0.03258926
201	0x3d085ef2	0.033293672
202	0xbcc678d3	-0.024227535
203	0x3d103881	0.035210136
204	0xbcbf5ce8	-0.02335973
205	0x3c6a0e85	0.014285688
206	0x3b004e59	0.001957795
207	0x3cadfd0f	0.021238832
208	0xbd1c5d0c	-0.038174674
209	0xbd467ff1	-0.04846186
210	0x3c70f4d7	0.014706812
211	0xbcf58b33	-0.029973602
212	0xbccfc057	-0.02536027
213	0x3d82caa0	0.06386304
214	0x3d1516d4	0.036398724
215	0x3af5d88b	0.0018756551
216	0x3c6c0001	0.014404298
217	0x3d9515ff	0.07279586
218	0xbb93cb94	-0.0045103524
219	0xbd966da9	-0.07345135
220	0xbd93f5c8	-0.072246134
221	0xbd0c7969	-0.034295473
222	0x3c86450e	0.01639035
223	0xbd7b3897	-0.061333265
224	0x3d826ec4	0.06368783
225	0x3d7c9d79	0.061673615
226	0x3d8c78aa	0.06858952
227	0x3c56322f	0.013073488
228	0x3d80a321	0.06281114
229	0xbd0c8452	-0.034305878
230	0xbd6c94af	-0.057758983
231	0x3d184217	0.037172403
232	0xbd4d3aa7	-0.050104763
233	0xbaa34ebe	-0.001245938
234	0xbd94224e	-0.072331056
235	0x3ca5d763	0.020244306
236	0xbd36ca5b	-0.044626575
237	0xbd485ada	-0.048914768
238	0x3b1636ab	0.0022920768
239	0x3d39e3ca	0.045383252
240	0x3d4d88ba	0.05017922
241	0xbd7788f1	-0.060433332
242	0xbc643348	-0.013928242
243	0xbaa842c3	-0.0012837279
244	0xbc609092	-0.013706343
245	0x3c2ecfb6	0.010669639
246	0x3cb2b634	0.021815397
247	0x3c80e11e	0.015732344
248	0xbd829ec6	-0.0637794
249	0xbccfc780	-0.025363684
250	0xbd38976e	-0.04506629
251	0xbd3c8a6a	-0.04603044
252	0xb9affb0c	-0.00033565646
253	0xbd959fb3	-0.07305851
254	0xbd7b4927	-0.06134906
255	0x3c9e2bfb	0.01930808

conv3.bias f4 [128]
0	0x3d647ab7	0.055781092
1	0xbcab4b44	-0.020909913
2	0x3d46fa2d	0.04857843
3	0xbd84f07c	-0.06491181
4	0xbd993387	-0.07480531
5	0x3d646d7c	0.055768475
6	0x3cc3eb11	0.0239158
7	0x3d56190a	0.052269973
8	0x3d816a0d	0.06319056
9	0x3d8d5852	0.069016114
10	0x3bea73bb	0.0071549094
11	0x3d9181f3	0.07104864
12	0x3d1f9db8	0.03896877
13	0x3d20b375	0.039233644
14	0xbd83822f	-0.06421315
15	0xbd3fa6cb	-0.046789926
16	0x3d1bab10	0.038004935
17	0x3d619a97	0.05507907
18	0xbd7ffa17	-0.062494364
19	0xbd01db9e	-0.031703584
20	0x3d71286a	0.058876432
21	0x3bba3a66	0.005683231
22	0xbc7ad0bc	-0.015308555
23	0x3cec2be8	0.02882953
24	0x3d150c8f	0.03638893
25	0x3d908902	0.07057382
26	0x3d68a4d6	0.056797825
27	0xbd2e13cd	-0.042499352
28	0xbd87d7ee	-0.06632982
29	0xbcfadcc4	-0.030622847
30	0x3d00bf9f	0.031432744
31	0x3d3a2835	0.0454485
32	0xbc52f76c	-0.012876373
33	0xbc51bd0b	-0.012801419
34	0x3cae99ed	0.021313632
35	0x3d571e6d	0.05251925
36	0x3c8c11f7	0.01709841
37	0x3d006d78	0.031354398
38	0xbc613c21	-0.013747246
39	0x3d9c5234	0.076328665
40	0x3cfc1bad	0.030774916
41	0xbd948552	-0.07251991
42	0xbc92c85f	-0.01791781
43	0xbc083668	-0.008313753
44	0xbd078670	-0.033087194
45	0xbd29973f	-0.041404005
46	0xbd4888b4	-0.048958495
47	0xbcf21be6	-0.029554319
48	0x3b65723a	0.0035010711
49	0xbd32e604	-0.04367639
50	0xbd2e3849	-0.042534146
51	0x3ca61300	0.020272732
52	0x3d2c8a34	0.04212399
53	0x3d39151c	0.045186147
54	0x3d8d71bf	0.06906461
55	0x3d6f29d4	0.0583895
56	0x3d2717a9	0.04079405
57	0x3ce1f862	0.027584258
58	0xbd8e206a	-0.06939776
59	0x3d387834	0.04503651
60	0xbcc34ef2	-0.023841355
61	0x3bd6ee25	0.0065591508
62	0x3d72a931	0.059243385
63	0xbd748790	-0.059699595
64	0x3c896790	0.016773015
65	0xbc91eb0a	-0.01781227
66	0x3bd56a15	0.00651289
67	0x3c519126	0.012790954
68	0xbc732a68	-0.014841653
69	0xbbe77aa1	-0.007064179
70	0xbd06e76b	-0.03293554
71	0xbd6d4184	-0.05792381
72	0x3d8b641a	0.06806202
73	0x3cf3d59e	0.029764947
74	0x3bf6242a	0.0075116353
75	0x3cc22d73	0.023703313
76	0x3cc73a72	0.024319861
77	0xbd9e9519	-0.07743282
78	0x3d04913b	0.032365065
79	0xbd7cdcaa	-0.06173388
80	0x3b8e044f	0.0043340097
81	0x3c84ea6b	0.01622506
82	0xbc84f9e0	-0.016232431
83	0x3ccd0cee	0.02503058
84	0x3d3ad561	0.04561365
85	0x3d59188c	0.053001925
86	0xbd0d93f8	-0.034564942
87	0x3cb0341c	0.021509223
88	0x3ca0c7e4	0.019626565
89	0x3d8a0eed	0.06741128
90	0x3d933fdb	0.07189914
91	0xbd41ea72	-0.047342725
92	0xbd3cd3b8	-0.04610035
93	0xbce4a646	-0.027911317
94	0xbc993612	-0.01870254
95	0x3b966924	0.0045901705
96	0x3d833f61	0.06408573
97	0x3c9ebe05	0.019377718
98	0x3c87c02e	0.01657113
99	0xbc862064	-0.016372867
100	0x3ce92a8f	0.028462676
101	0x3d2f5547	0.042805936
102	0xbd453dde	-0.048154704
103	0x3b9385a1	0.004502014
104	0x3d45dc9e	0.0483061
105	0xbcb7ec05	-0.02245141
106	0x3d60559a	0.054769136
107	0xbba6c7b8	-0.0050897263
108	0x3ce47631	0.02788839
109	0x3d79870f	0.060919818
110	0x3af6b04d	0.0018820852
111	0x3d1ba97a	0.038003422
112	0xbd365278	-0.044512242
113	0xbd898660	-0.06715083
114	0xbc1fd9b1	-0.0097564915
115	0x3d990a15	0.07472626
116	0xbcc166bd	-0.02360856
117	0x3bdd2530	0.006748818
118	0x3d448f28	0.047988087
119	0xbd3f929b	-0.046770673
120	0x3b91ef3a	0.004453567
121	0xbc2fe6cc	-0.010736179
122	0xbb3753b0	-0.0027973466
123	0xbccf76b9	-0.025325166
124	0xbd4fddf9	-0.0507488
125	0xbd32888f	-0.043587264
126	0xbd1a2ec4	-0.037642255
127	0x3d840e9a	0.064480975

bn3.weight f4 [128]
0	0x3f82aabf	1.0208358
1	0x3f818239	1.0117866
2	0x3f855085	1.0415198
3	0x3f838cfb	1.0277399
4	0x3f83926f	1.0279063
5	0x3f810149	1.0078517
6	0x3f81e831	1.0148984
7	0x3f819674	1.012404
8	0x3f83735f	1.0269583
9	0x3f7fdad3	0.99943274
10	0x3f7d0f5c	0.9885156
11	0x3f7c6751	0.9859515
12	0x3f8292db	1.0201067
13	0x3f81eae7	1.0149812
14	0x3f860e4a	1.0473111
15	0x3f82d800	1.0222168
16	0x3f851d20	1.0399513
17	0x3f82ebf8	1.0228262
18	0x3f82bf89	1.0214702
19	0x3f819374	1.0123124
20	0x3f7ff615	0.99984866
21	0x3f82c4a9	1.0216266
22	0x3f7f187b	0.9964673
23	0x3f7ebbc5	0.99505264
24	0x3f8319ad	1.0242211
25	0x3f819c74	1.0125871
26	0x3f831228	1.0239916
27	0x3f7ba8df	0.9830455
28	0x3f812536	1.0089481
29	0x3f83d700	1.0299988
30	0x3f7c2806	0.9849857
31	0x3f803ec7	1.0019158
32	0x3f7e5bd9	0.993589
33	0x3f8176fd	1.0114437
34	0x3f80fe05	1.0077521
35	0x3f83b6aa	1.029012
36	0x3f837f46	1.0273216
37	0x3f7ca1e5	0.9868453
38	0x3f838b22	1.0276835
39	0x3f808476	1.0040424
40	0x3f805bf8	1.0028067
41	0x3f81d96e	1.0144479
42	0x3f7c6042	0.9858438
43	0x3f81e982	1.0149386
44	0x3f850b24	1.0394025
45	0x3f827cb8	1.0194311
46	0x3f83077d	1.023666
47	0x3f81a027	1.0127
48	0x3f7a867b	0.9786145
49	0x3f84bd10	1.0370197
50	0x3f82913a	1.020057
51	0x3f81f048	1.0151453
52	0x3f822f19	1.0170623
53	0x3f7b8451	0.98248774
54	0x3f7e3c81	0.9931107
55	0x3f80d3a0	1.0064583
56	0x3f8373e8	1.0269747
57	0x3f82bc6b	1.0213751
58	0x3f7a7ecc	0.97849727
59	0x3f81b6f4	1.0133958
60	0x3f7a71a2	0.9782964
61	0x3f8131b4	1.0093293
62	0x3f801512	1.000643
63	0x3f7be446	0.9839519
64	0x3f82f2f8	1.0230398
65	0x3f84e52d	1.0382439
66	0x3f8368bd	1.0266339
67	0x3f8151c7	1.0103081
68	0x3f82efd9	1.0229446
69	0x3f840523	1.0314068
70	0x3f831b8f	1.0242785
71	0x3f857b0d	1.0428177
72	0x3f82ef65	1.0229307
73	0x3f81abc8	1.0130548
74	0x3f84cb1e	1.0374486
75	0x3f82821c	1.0195956
76	0x3f82baab	1.0213217
77	0x3f84145b	1.0318712
78	0x3f8106ee	1.008024
79	0x3f855cc1	1.0418931
80	0x3f8137c7	1.0095147
81	0x3f7fd269	0.99930435
82	0x3f852cad	1.0404259
83	0x3f835246	1.0259483
84	0x3f8453b7	1.0338048
85	0x3f85a6a8	1.0441484
86	0x3f83ef9e	1.03075
87	0x3f81c6b2	1.0138762
88	0x3f7d0a14	0.98843503
89	0x3f807199	1.0034667
90	0x3f7d0c20	0.98846626
91	0x3f824dee	1.0180032
92	0x3f79e7e4	0.9761946
93	0x3f8255b3	1.0182403
94	0x3f81f16a	1.0151799
95	0x3f82c1ce	1.0215394
96	0x3f81a369	1.0127994
97	0x3f8070c2	1.0034411
98	0x3f8481d4	1.035212
99	0x3f83047c	1.0235744
100	0x3f7ea673	0.9947273
101	0x3f850d87	1.0394753
102	0x3f7b8435	0.98248607
103	0x3f812b86	1.0091407
104	0x3f8330a6	1.0249221
105	0x3f8200ba	1.0156472
106	0x3f818d9f	1.0121344
107	0x3f7e1642	0.9925271
108	0x3f83ff9a	1.0312378
109	0x3f805fe4	1.0029263
110	0x3f810bf1	1.0081769
111	0x3f80b3af	1.0054835
112	0x3f855347	1.0416039
113	0x3f7cbdbf	0.9872703
114	0x3f82e145	1.0224997
115	0x3f7d8913	0.99037284
116	0x3f7f72fa	0.99784815
117	0x3f7bc9cb	0.98354787
118	0x3f82e4d3	1.0226082
119	0x3f7ba277	0.98294777
120	0x3f808cb4	1.0042939
121	0x3f807caa	1.0038044
122	0x3f7a6cbd	0.9782217
123	0x3f819c12	1.0125754
124	0x3f827105	1.0190741
125	0x3f7ba20a	0.98294127
126	0x3f8007f0	1.0002422
127	0x3f81ec5a	1.0150254

bn3.bias f4 [128]
0	0x3cba27d2	0.022724066
1	0x3c4e5b0f	0.012594952
2	0x3d0b01af	0.033937152
3	0x3ce3610c	0.027756236
4	0x3ceb8c90	0.028753549
5	0x3c0cd4ae	0.008595629
6	0x3c838039	0.016052352
7	0x3c608b17	0.013705037
8	0x3ce3b890	0.027797967
9	0x3c058c08	0.008151062
10	0xbc1cb73f	-0.009565174
11	0xbc4848bb	-0.012224372
12	0x3cbe0584	0.02319599
13	0x3ca9979b	0.020702174
14	0x3d069c0c	0.03286366
15	0x3cbb4519	0.022860097
16	0x3d02f99c	0.031976327
17	0x3ca9237f	0.020646809
18	0x3cb96cea	0.022634942
19	0x3c8eff4f	0.017455725
20	0x3b56fa18	0.0032802876
21	0x3cab54e9	0.020914512
22	0xbaea7384	-0.001788721
23	0xbbea8fe7	-0.007158268
24	0x3ccb1900	0.024792194
25	0x3c47e4e0	0.012200564
26	0x3c97f593	0.018549716
27	0xbc38d1e3	-0.01128051
28	0x3c41511d	0.011799124
29	0x3ce959da	0.028485227
30	0xbc74cc24	-0.014941249
31	0x3c26eeff	0.010188817
32	0xbac23021	-0.0014815369
33	0x3c4a8c89	0.012362608
34	0x3c2d1e1e	0.0105662625
35	0x3ceb0426	0.028688502
36	0x3cddf440	0.027094007
37	0xbc34696e	-0.0110114645
38	0x3ce2d4ab	0.027689299
39	0xba42bcfc	-0.00074286736
40	0x3c247652	0.010037975
41	0x3c60e3cd	0.013726187
42	0xbc6d3bbb	-0.014479573
43	0x3c93ec92	0.018057141
44	0x3cf9a30a	0.03047325
45	0x3c6ab003	0.014324191
46	0x3ccf5349	0.025308268
47	0x3c599804	0.013280872
48	0xbcab52af	-0.02091345
49	0x3ceb5668	0.028727725
50	0x3c90f45b	0.017694643
51	0x3c7fc447	0.015610761
52	0x3c89e9f6	0.016835194
53	0xbc7a062d	-0.0152602615
54	0xbb146490	-0.0022642948
55	0x3c6eb4aa	0.014569441
56	0x3cbcf278	0.023064837
57	0x3cb0d6c1	0.021586778
58	0xbcb2f2be	-0.021844264
59	0x3c7c76b4	0.01540916
60	0xbcae4e24	-0.021277495
61	0x3c3402da	0.010987008
62	0x3b57e399	0.0032942055
63	0xbc767a7f	-0.015043854
64	0x3cc6a9dc	0.024250917
65	0x3d017059	0.031601284
66	0x3cd6fc5d	0.026243383
67	0x3c41f09f	0.011837154
68	0x3cb1066e	0.021609511
69	0x3c9ddff3	0.019271826
70	0x3cc34341	0.02383578
71	0x3d192b1a	0.03739462
72	0x3cbd99d5	0.023144642
73	0x3cb4a6af	0.022052137
74	0x3cffd6f0	0.03123042
75	0x3c9c3aa6	0.019070935
76	0x3cbab9ac	0.022793613
77	0x3ce9a66b	0.028521737
78	0x3c21f6fa	0.009885544
79	0x3d0574f4	0.03258224
80	0x3c58753c	0.013211545
81	0x3886fc68	6.436632e-05
82	0x3d064239	0.032778
83	0x3c5ca358	0.013466679
84	0x3cdfd636	0.027323823
85	0x3d04baac	0.032404587
86	0x3d053e25	0.03252997
87	0x3c8b1cea	0.01698156
88	0xbbef01ff	-0.007293939
89	0x3ba6b4e1	0.0050874804
90	0xbc596c35	-0.0132704275
91	0x3c9d215e	0.01918095
92	0xbcc1dcbd	-0.023664827
93	0x3cb5dfdc	0.022201471
94	0x3caf16c9	0.02137317
95	0x3cb8b3c9	0.022546666
96	0x3c8643dd	0.016389782
97	0x3bfb55e4	0.007670151
98	0x3ceb6d41	0.02873862
99	0x3cc1dddb	0.02366536
100	0x3a9e2765	0.0012066184
101	0x3cfae8ed	0.030628646
102	0xbc7e4f0d	-0.015521777
103	0x3c0556f3	0.008138406
104	0x3cc1950c	0.023630641
105	0x3c573337	0.013134769
106	0x3c491484	0.012272958
107	0xbb0ab974	-0.0021167668
108	0x3cf3ffb6	0.029785018
109	0x3bd88a74	0.006608302
110	0x3c33ffaf	0.010986253
111	0x3c8f140a	0.01746561
112	0x3d0e120c	0.03468518
113	0xbc615500	-0.013753176
114	0x3c86fccd	0.016477967
115	0xbc18ab52	-0.00931819
116	0xbba99034	-0.005174661
117	0xbc80380c	-0.015651725
118	0x3cbeb202	0.02327824
119	0xbc7943cc	-0.015213918
120	0x3b22a38e	0.0024816724
121	0x3c3c9388	0.011509784
122	0xbcb5b32e	-0.022180166
123	0x3ca2eef2	0.019889329
124	0x3cc6ea41	0.024281623
125	0xbc82ee99	-0.015982913
126	0x3bcc73de	0.0062393984
127	0x3c3dd8fb	0.011587377

bn3.running_mean f4 [128]
0	0xbe712781	-0.23550226
1	0xbf270db7	-0.652553
2	0x3d0bdb58	0.03414473
3	0xbeefc80e	-0.46832317
4	0x3e1cf868	0.15329134
5	0x3efa253e	0.4885654
6	0xbe4eae00	-0.20183563
7	0xbdbc3b6c	-0.09191021
8	0x3e4dd790	0.20101762
9	0xbf5584e6	-0.8340591
10	0xbe9d07f2	-0.30670124
11	0x3e45bab9	0.1930951
12	0xbd64d251	-0.055864636
13	0x3d1e5bef	0.038661893
14	0x3e1eda7c	0.15513033
15	0xbe8ef044	-0.27917683
16	0x3e571185	0.21002777
17	0xbbed62e8	-0.0072444566
18	0x3f167514	0.587724
19	0xbeed55fb	-0.4635466
20	0x3e4980aa	0.19677988
21	0xbc88dc68	-0.01670666
22	0xbc84965d	-0.01618498
23	0x3e3aeb75	0.18253882
24	0xbdb38176	-0.08764927
25	0x3f285281	0.6575089
26	0x3e0d0ee9	0.13775219
27	0x3e41471b	0.18874781
28	0xbf194050	-0.5986376
29	0x3e9092da	0.2823704
30	0xbc70453d	-0.014664945
31	0xbefb62cd	-0.49098817
32	0xbda15882	-0.0787821
33	0x3eb91838	0.3615129
34	0xbf01df1f	-0.5073108
35	0xbc5edc74	-0.013602365
36	0x3e0c7422	0.13716176
37	0xbd03f5ca	-0.032216825
38	0xbec82390	-0.39089632
39	0xbeac10c2	-0.33606535
40	0xbd8e90d8	-0.069612205
41	0xbe259223	-0.16169028
42	0xbf04ad19	-0.51826626
43	0xbd9952f2	-0.07486524
44	0x3e750980	0.23929405
45	0xbed7bf28	-0.42138028
46	0xbe177214	-0.14789611
47	0x3e9a38da	0.301215
48	0xbc9e592a	-0.019329626
49	0xbdefa70f	-0.11701786
50	0xbd548d7c	-0.051892743
51	0x3e7d23f1	0.24720742
52	0xbd15fa16	-0.036615454
53	0x3e0c5d9b	0.13707583
54	0xbe828158	-0.25489306
55	0xbf090bd9	-0.53533703
56	0xbee8a940	-0.45441628
57	0xbd6ec48c	-0.05829291
58	0xbf45ddc0	-0.7729149
59	0x3e0d068e	0.13772032
60	0xbebe6575	-0.3718678
61	0x3e354349	0.17701449
62	0xbee92fd9	-0.45544317
63	0xbeb1cd8d	-0.34727135
64	0xbe47d629	-0.1951529
65	0x3d859969	0.06523401
66	0x3e43d19c	0.19122928
67	0xbdde0d17	-0.108423404
68	0x3e936241	0.287859
69	0x3dc10895	0.09425465
70	0x3ebdf21c	0.37098777
71	0x3ecabe98	0.39598536
72	0xbf0b15df	-0.5433025
73	0xbe0a7dab	-0.13524501
74	0x3eac29ec	0.33625734
75	0x3f233482	0.63751996
76	0x3e677c37	0.22605978
77	0xbeda7055	-0.42663828
78	0x3dd6649b	0.10468408
79	0xbe87f294	-0.2655226
80	0xbf4cc053	-0.79980963
81	0xbe85e0c1	-0.26148036
82	0x3b2fc6c0	0.0026821345
83	0x3ea8ac19	0.329438
84	0x3e0c7ae9	0.13718762
85	0xbece69e5	-0.40315166
86	0x3f08991c	0.53358626
87	0x3b94aa55	0.0045369067
88	0xbe5d796d	-0.21628352
89	0xbd499a0d	-0.04921918
90	0xbf0fdfec	-0.5620105
91	0xbe8a718e	-0.2703976
92	0xbd1ba5ee	-0.03800004
93	0x3eae54ba	0.34049016
94	0xbe9b519e	-0.30335706
95	0xbe8f6311	-0.2800527
96	0x3e11b264	0.14228207
97	0xbd9077ea	-0.07054122
98	0x3d78f4af	0.060780223
99	0x3ea6b4d5	0.3255984
100	0x3dc321de	0.09527944
101	0xbdb2b65c	-0.087261885
102	0xbf06867e	-0.5254897
103	0xbe9994dc	-0.29996383
104	0x3f016a10	0.50552464
105	0x3e4b769e	0.19869468
106	0x3d72418f	0.059144553
107	0x3d7c7071	0.06163067
108	0x3ec3f15b	0.38270077
109	0xbe4cc47f	-0.19996832
110	0xbee32b0d	-0.44368783
111	0xbe6e1ba2	-0.23252729
112	0x3f0ee1cc	0.5581329
113	0xbebe04e1	-0.37113097
114	0x3dde1b32	0.10845031
115	0xbea3421b	-0.31886372
116	0xbe1a4152	-0.1506398
117	0x3e878643	0.2646962
118	0xbeb2a821	-0.34893897
119	0x3df96665	0.12177733
120	0x3e72a267	0.23694764
121	0x3e16b7bc	0.14718527
122	0x3ea3c1d8	0.3198383
123	0xbe9f0dfd	-0.3106536
124	0x3ef44259	0.4770687
125	0xbf3df2fe	-0.741989
126	0xbe89ab41	-0.2688847
127	0xbeb0f252	-0.34559876

bn3.running_var f4 [128]
0	0x3f417d94	0.7558224
1	0x3f7af662	0.980322
2	0x3e8c2f04	0.2737962
3	0x3efa729b	0.48915562
4	0x3eb48d7b	0.3526419
5	0x3f40f272	0.7536994
6	0x3efdaf95	0.4954802
7	0x3ec5b474	0.38614237
8	0x3eb994a5	0.3624622
9	0x3f2bdb97	0.6713194
10	0x3eef4ab4	0.4673668
11	0x3e806aff	0.25081632
12	0x3ea92c3e	0.33041567
13	0x3f114016	0.5673841
14	0x3ecee11e	0.40406126
15	0x3ea6a3ae	0.32546753
16	0x3e41e6b2	0.1893566
17	0x3eb4433c	0.35207546
18	0x3f7272fb	0.94706696
19	0x3f5a6b3e	0.8531989
20	0x3df2f828	0.11863738
21	0x3f010933	0.5040466
22	0x3f1b3b49	0.60637337
23	0x3e93dfd4	0.28881705
24	0x3deb03ea	0.11475356
25	0x3ec97aa7	0.3935139
26	0x3e327288	0.17426503
27	0x3f87c1b8	1.0605993
28	0x3f14b55e	0.58089244
29	0x3f334652	0.70029175
30	0x3dded458	0.10880345
31	0x3f6536ef	0.89536947
32	0x3ece83d9	0.40334967
33	0x3e8448de	0.25836843
34	0x3ea17d2e	0.31540817
35	0x3e1c3003	0.1525269
36	0x3e8329b9	0.2561777
37	0x3e1a66e7	0.15078317
38	0x3f5a9cbd	0.85395414
39	0x3f1d130e	0.613572
40	0x3ed0ca17	0.40779182
41	0x3f0c3e2a	0.54782355
42	0x3ebdf215	0.37098756
43	0x3f3124b7	0.6919665
44	0x3e85728d	0.26063958
45	0x3e172549	0.14760317
46	0x3fb4af6c	1.4116035
47	0x3e42e667	0.19033204
48	0x3e988604	0.29789746
49	0x3e85e35e	0.2615003
50	0x3ec785d6	0.38969296
51	0x3e315195	0.17316277
52	0x3ebd36b1	0.3695579
53	0x3e77e9ca	0.24210277
54	0x3f234b51	0.637868
55	0x3f32d338	0.69853544
56	0x3f34f633	0.7068817
57	0x3ee6546f	0.44986293
58	0x3e602b7f	0.21891592
59	0x3d828b7d	0.063742615
60	0x3eed9c93	0.4640852
61	0x3f100972	0.5626441
62	0x3eec3152	0.46131378
63	0x3f21a9dd	0.63149816
64	0x3f27ead3	0.6559269
65	0x3e9b04e5	0.30277172
66	0x3f49771b	0.78697366
67	0x3ebfa7ab	0.37432608
68	0x3e9e1011	0.30871633
69	0x3e95ca35	0.29255834
70	0x3eaf69ef	0.34260508
71	0x3ed4a528	0.41532254
72	0x3e8c2c3d	0.273775
73	0x3edea83b	0.43487725
74	0x3e6a587e	0.2288532
75	0x3eaf0031	0.34179834
76	0x3f494392	0.7861873
77	0x3fa67e00	1.3007202
78	0x3f150cd8	0.58222723
79	0x3e70fba8	0.23533499
80	0x3ee9ceb4	0.45665514
81	0x3e4922b9	0.19642152
82	0x3e22ff82	0.15917781
83	0x3e806528	0.25077176
84	0x3ec9969e	0.39372724
85	0x3ea4144a	0.3204673
86	0x3f4cabac	0.7994945
87	0x3ef73a5c	0.48286712
88	0x3e656b13	0.22404127
89	0x3f12b57d	0.5730818
90	0x3ea3874e	0.31939167
91	0x3f40864f	0.7520494
92	0x3ede9fc4	0.43481266
93	0x3f179baa	0.592219
94	0x3f3e28c6	0.74280965
95	0x3e9fd6ab	0.31218466
96	0x3f3d9496	0.7405485
97	0x3eb4d7f2	0.35321003
98	0x3e22d204	0.15900427
99	0x3f53c5ef	0.827239
100	0x3f57e452	0.84332764
101	0x3e572302	0.21009448
102	0x3e9d6422	0.30740458
103	0x3e225d4a	0.158559
104	0x3f0bc862	0.54602635
105	0x3e59a694	0.21254951
106	0x3e6b9272	0.23005083
107	0x3d8d0096	0.068848774
108	0x3f0e0430	0.5547514
109	0x3ec6196c	0.3869127
110	0x3e1136a2	0.14180997
111	0x3f33278a	0.69982207
112	0x3ef06864	0.46954644
113	0x3f25862a	0.64657843
114	0x3e273445	0.16328533
115	0x3ec5a990	0.38605928
116	0x3e5bbee8	0.21459544
117	0x3e5bf0f0	0.21478629
118	0x3ed14dd3	0.40879688
119	0x3ef88242	0.4853688
120	0x3e7e0584	0.24806792
121	0x3fd4139e	1.6568487
122	0x3e5163ff	0.20448302
123	0x3ecdcbba	0.40194494
124	0x3f34eace	0.70670784
125	0x3f250bb0	0.6447096
126	0x3f3b8dee	0.7326344
127	0x3efc0d83	0.4922906
